…
类内部的函数def _compute_targets_batch(): bbox_transform.py 文件bbox_transform() 函数bbox_transform_batch() 函数bbox_transform_inv() 函数BackBoneFasterRCNN 采用的 backbone 主要有两种, 一种是经典简单的 VGG16 网络, 一种是提取能力更强的 ResNet网络, 接下来我们对这两个网络的实现进行代码说明. VGG16首先, 我们可以利用 PyTorch 的 torchvision.models 来载入 VGG16 模型(当然也可以自己实现, 不过这不在本文的讨论范围内), 从卷积核的size等信息可以看出, 这已经是优化过的 vgg16 网络, 在网络层参数设置上和原始的 vgg16 有略微不同, 但大体上结构是相似的, 如下所示: 12import torchvisionvgg = models.vgg16() 可以看一下 vgg16 网络的内部结构(可以依照此结构来复现 vgg16 网络):1print(vgg) 输出如下:1234567891011121314151617181920212223242526272829303132333435363738394041424344VGG( (features): Sequential( (0): Conv2d(3, 64, kernel_size=(3, 3), stride=(1, 1), padding=(1, 1)) (1): ReLU(inplace) (2): Conv2d(64, 64, kernel_size=(3, 3), stride=(1, 1), padding=(1, 1)) (3): ReLU(inplace) (4): MaxPool2d(kernel_size=2, stride=2, padding=0, dilation=1, ceil_mode=False) (5): Conv2d(64, 128, kernel_size=(3, 3), stride=(1, 1), padding=(1, 1)) (6): ReLU(inplace) (7): Conv2d(128, 128, kernel_size=(3, 3), stride=(1, 1), padding=(1, 1)) (8): ReLU(inplace) (9): MaxPool2d(kernel_size=2, stride=2, padding=0, dilation=1, ceil_mode=False) (10): Conv2d(128, 256, kernel_size=(3, 3), stride=(1, 1), padding=(1, 1)) (11): ReLU(inplace) (12): Conv2d(256, 256, kernel_size=(3, 3), stride=(1, 1), padding=(1, 1)) (13): ReLU(inplace) (14): Conv2d(256, 256, kernel_size=(3, 3), stride=(1, 1), padding=(1, 1)) (15): ReLU(inplace) (16): MaxPool2d(kernel_size=2, stride=2, padding=0, dilation=1, ceil_mode=False) (17): Conv2d(256, 512, kernel_size=(3, 3), stride=(1, 1), padding=(1, 1)) (18): ReLU(inplace) (19): Conv2d(512, 512, kernel_size=(3, 3), stride=(1, 1), padding=(1, 1)) (20): ReLU(inplace) (21): Conv2d(512, 512, kernel_size=(3, 3), stride=(1, 1), padding=(1, 1)) (22): ReLU(inplace) (23): MaxPool2d(kernel_size=2, stride=2, padding=0, dilation=1, ceil_mode=False) (24): Conv2d(512, 512, kernel_size=(3, 3), stride=(1, 1), padding=(1, 1)) (25): ReLU(inplace) (26): Conv2d(512, 512, kernel_size=(3, 3), stride=(1, 1), padding=(1, 1)) (27): ReLU(inplace) (28): Conv2d(512, 512, kernel_size=(3, 3), stride=(1, 1), padding=(1, 1)) (29): ReLU(inplace) (30): MaxPool2d(kernel_size=2, stride=2, padding=0, dilation=1, ceil_mode=False) ) (classifier): Sequential( (0): Linear(in_features=25088, out_features=4096, bias=True) (1): ReLU(inplace) (2): Dropout(p=0.5) (3): Linear(in_features=4096, out_features=4096, bias=True) (4): ReLU(inplace) (5): Dropout(p=0.5) (6): Linear(in_features=4096, out_features=1000, bias=True) )) ResNetResNet 的结构稍微复杂一些. 这里就不再贴出了, 不过和 VGGNet 相同, 都是利用 torchvision.mdoels 模块来导入的. Faster RCNN 模型结构在了解了以上两种模型骨架之后, 我们首先创建 Faster RCNN 的整个结构(包含 RoIPool 和 RPN, 不过, 这里只是先用作占位, 具体实现在后面). 123456789101112131415class _fasterRCNN(nn.Module): # 以单下划线开头, 表明为内部函数 """faster RCNN""" def __init__(self, classes, class_agnostic): super(_FasterRCNN, self).__init__()
…
 120) self.fc2 = nn.Linear(120, 84) self.fc3 = nn.Linear(84, 10) def forward(self, x): # Max pooling over a (2, 2) window x = F.max_pool2d(F.relu(self.conv1(x)), (2, 2)) # If the size is a square you can only specify a single number x = F.max_pool2d(F.relu(self.conv2(x)), 2) x = x.view(-1, self.num_flat_features(x)) x = F.relu(self.fc1(x)) x = F.relu(self.fc2(x)) x = self.fc3(x) return x def num_flat_features(self, x): size = x.size()[1:] # all dimensions except the batch dimension num_features = 1 for s in size: num_features *= s return num_featuresnet = Net()print(net) 输出如下1234567Net( (conv1): Conv2d(1, 6, kernel_size=(5, 5), stride=(1, 1)) (conv2): Conv2d(6, 16, kernel_size=(5, 5), stride=(1, 1)) (fc1): Linear(in_features=400, out_features=120, bias=True) (fc2): Linear(in_features=120, out_features=84, bias=True) (fc3): Linear(in_features=84, out_features=10, bias=True)) 当定义好模型的forward()函数以后, backward()函数就会自动利用autograd机制定义, 无需认为定义. 可以通过net.parameters()函数来获取模型中可学习的参数 123params = net.parameter() # params的类型为 &lt;class 'Iterator'&gt;print(len(list(params))) # 具有可学习参数的层数print(list(params)[0].size()) # conv1 的参数 根据网络结构接受的输入, 想网络中传输数据并获取计算结果123input = torch.randn(1,1,32,32) # 四个维度分别为 (N,C,H,W)out = net(input) # 自动调用forward函数进
…
